1p19q_model.pth (torch, 78853 bytes, 7 tensors)

_orig_mod.sequential.0.weight f4 [128, 64]
0	0x3d9e780d	0.077377416
1	0x3d874595	0.066050686
2	0xbb45ce49	-0.003018277
3	0x3e14aa87	0.14518176
4	0xbc5767d8	-0.013147317
5	0x3c9de224	0.019272871
6	0xbdb332c6	-0.08749919
7	0x3dc4d95a	0.09611769
8	0x3db80208	0.089847624
9	0xbdcc768a	-0.09983547
10	0x3df0745c	0.11740944
11	0x3d484d8f	0.04890209
12	0x3db06734	0.086134344
13	0x3cadbcb4	0.021208145
14	0x3d5ac5de	0.053411357
15	0xbd1b1a29	-0.037866745
16	0x3db9677b	0.090529405
17	0x3d047300	0.032336235
18	0xbd0b1405	-0.03395464
19	0x3d31f973	0.043450784
20	0xbd62b87c	-0.05535172
21	0xbd193ffd	-0.03741454
22	0xbd35e9bc	-0.04441236
23	0x3dcadab2	0.09904994
24	0xbde2889c	-0.110612124
25	0xbd4f9cb4	-0.050686553
26	0x3a8b672d	0.0010635607
27	0xbd88f86c	-0.06688008
28	0xbc4493f2	-0.011998164
29	0xbe109ef2	-0.14123133
30	0x3de7a08d	0.113099195
31	0xbde7f62a	-0.11326249
32	0x3dc098a2	0.094041124
33	0x3d21f802	0.03954316
34	0xbc841c5e	-0.016126808
35	0x3d9725ae	0.07380234
36	0x3accce36	0.001562542
37	0x3d93991d	0.072069384
38	0xbc0f2fd8	-0.008739434
39	0xbc74e4c9	-0.014947125
40	0x3c90b845	0.017665992
41	0xbd491e9b	-0.049101453
42	0x3d33537b	0.043780785
43	0x3e04861b	0.12941782
44	0x3da76441	0.08173419
45	0xbd5c46ea	-0.053778566
46	0x3d8253e5	0.06363658
47	0x3c8090e4	0.01569409
48	0x3d98a835	0.07453958
49	0xbd84743f	-0.06467485
50	0xbdd8f327	-0.10593253
51	0xbd8c4e0d	-0.068508245
52	0xbdc3c0ad	-0.09558234
53	0x3dfafa0c	0.12254724
54	0x3cac07f4	0.020999886
55	0x3d591445	0.052997846
56	0x3bdb516b	0.0066930554
57	0x3d109320	0.03529656
58	0x3dd44f20	0.103666544
59	0xbd6cea8d	-0.057840873
60	0x3cb11bac	0.02161964
61	0xbd8b845e	-0.068123564
62	0x3d450c43	0.048107397
63	0xbceb3860	-0.028713405
64	0x3d5acee9	0.05341998
65	0x3ca70e72	0.02039263
66	0x3dd37754	0.103254944
67	0xbde3d3a0	-0.11124349
68	0xbdb1d493	-0.086831234
69	0xbd4497a1	-0.047996167
70	0x3e07968d	0.13241024
71	0x3d0d93e2	0.03456486
72	0x3e18a903	0.14908223
73	0xbdcf9cf0	-0.10137355
74	0xbe1eedab	-0.1552035
75	0xbd822213	-0.063541554
76	0xbdd2c58c	-0.10291585
77	0x3d19f598	0.037587732
78	0x3d879852	0.0662085
79	0x3e15c3bb	0.14625446
80	0xbd9d1611	-0.076702245
81	0xbdebc6d5	-0.115125336
82	0x3d1cd2c8	0.038286954
83	0xbd97cd6a	-0.074122265
84	0x3d4d4e9f	0.050123807
85	0x3a65cc3c	0.000876609
86	0x3d87cfa0	0.06631398
87	0xbddec3b0	-0.10877168
88	0xbdaaee63	-0.0834625
89	0x3ba2bfad	0.004966697
90	0x3bede352	0.0072597647
91	0xbd0cda5d	-0.034387935
92	0x3decf148	0.11569458
93	0x3e03a084	0.128542
94	0xbdbd709a	-0.09249993
95	0xbd843bf1	-0.064567454
96	0x3e008bc8	0.12553322
97	0xbd96774d	-0.073469736
98	0xbd8d36eb	-0.068952404
99	0xbe2240f4	-0.1584509
100	0xbddc22ea	-0.10748847
101	0x3d925ec4	0.07146981
102	0x3cf376b3	0.029719686
103	0xbe01b1aa	-0.1266543
104	0x3cdb9e00	0.026808739
105	0xbd7b9655	-0.061422665
106	0xbd9fc856	-0.07801883
107	0xbdb22d4c	-0.08700046
108	0xbe055cb4	-0.13023645
109	0xbdc28cd2	-0.094995156
110	0x3e20b029	0.156922
111	0x3d13c79c	0.036079034
112	0x3c001982	0.007818582
113	0xbe149f29	-0.1451384
114	0xbd9a58bc	-0.07536456
115	0xbc9925b1	-0.01869473
116	0xbc4238cb	-0.011854361
117	0xbdd29e78	-0.10284132
118	0xbd9f6a3f	-0.07783937
119	0xbdd2674e	-0.1027361
120	0x3d3abbb5	0.045589168
121	0xbcf48cb1	-0.029852243
122	0xbd08908f	-0.033340987
123	0xbd7653d5	-0.060138542
124	0xbdb81dff	-0.08990096
125	0xbdd21bd4	-0.10259214
126	0xbd118a7c	-0.03553246
127	0xbdd6d30c	-0.10489473
128	0x3de9246c	0.113839
129	0xbc4b6a4e	-0.012415482
130	0x3dfcc421	0.12342096
131	0x3cf98738	0.030459985
132	0xbdef4220	-0.11682534
133	0x3dcc5cee	0.099786624
134	0xbcce2d9c	-0.025168233
135	0xbd65cb82	-0.056102283
136	0xbdc30e95	-0.09524266
137	0xbdf32b3e	-0.11873482
138	0x3ceb86f9	0.028750883
139	0xbca0f99e	-0.019650277
140	0x3d275e74	0.040861562
141	0xbddabf8e	-0.106810674
142	0x3dd45eb5	0.103696264
143	0xbdac50d3	-0.084138535
144	0xbcfd8556	-0.030947369
145	0x3ceb331b	0.028710892
146	0x3d88361d	0.06650946
147	0x3dcec8de	0.10096906
148	0x3dde0c1e	0.10842155
149	0xbdc74958	-0.09730786
150	0x3ce8d0de	0.028419908
151	0xbd3bf63d	-0.045889128
152	0xbc975afb	-0.018476
153	0xbdba9053	-0.09109559
154	0x3df9d1e0	0.121982336
155	0xbdc277e9	-0.09495527
156	0x3db1d594	0.08683315
157	0x3d8082da	0.06274958
158	0x3d6e4a55	0.058176357
159	0xbd7a752a	-0.061146893
160	0x3dfd1a81	0.12358571
161	0x3cd94d05	0.026525984
162	0x3c52a823	0.01285747
163	0xbe02c2ac	-0.12769574
164	0x3cbd1ddc	0.023085527
165	0xbcb67804	-0.022274025
166	0xbd3b5c6a	-0.04574243
167	0x3dc5f848	0.096664965
168	0x3d142b5f	0.036174174
169	0xbd8b08cf	-0.067887895
170	0xbd7fc779	-0.06244609
171	0xbb9a73d0	-0.004713513
172	0x3d70f3be	0.0588262
173	0xbd273291	-0.04081971
174	0xbd77903d	-0.06044029
175	0xbd9306a6	-0.071790025
176	0xbdb60721	-0.088880785
177	0x3d46b74c	0.04851465
178	0x3dc91e53	0.09820237
179	0xbe12a5e2	-0.14321092
180	0x3ce755f6	0.028239232
181	0x3da3dcf1	0.080011256
182	0x3ceaf781	0.028682472
183	0xbd711333	-0.0588562
184	0x3d833008	0.064056456
185	0x3da78cb3	0.08181133
186	0x3d478737	0.048712935
187	0xbba42ba7	-0.0050100866
188	0xbca421af	-0.020035593
189	0x3cc38505	0.02386714
190	0xbc951538	-0.018198594
191	0xbd4423f0	-0.047885835
192	0x3d63b0a7	0.05558839
193	0x3d958774	0.07301226
194	0xbd5ac593	-0.053411078
195	0x3c042c81	0.008067251
196	0xbc00b982	-0.0078567285
197	0xbd45ea47	-0.048319127
198	0xba583937	-0.0008248272
199	0x3d311c6d	0.04324
200	0xbe22e8f8	-0.15909183
201	0xbd8ac62b	-0.06776079
202	0x3decd79f	0.11564564
203	0x3ce82013	0.028335607
204	0x3a078ba8	0.0005170652
205	0xbd8ecb22	-0.06972338
206	0xbdd99626	-0.10624342
207	0xbe18ffcf	-0.14941333
208	0xbb9bd22a	-0.004755278
209	0x3d48df8b	0.049041312
210	0x3dc4a6ee	0.09602152
211	0x3d6db4a2	0.058033593
212	0xbde6567c	-0.11246964
213	0xbdab81be	-0.08374356
214	0xbc5eac6a	-0.013590911
215	0x3dcd2782	0.10017301
216	0x3cd3ff21	0.02587849
217	0xbcf8e063	-0.030380433
218	0x3d393ea0	0.04522574
219	0xbd302b45	-0.043010015
220	0xbde99bf3	-0.11406698
221	0x3d49c8d8	0.049263805
222	0xbda36ec2	-0.0798011
223	0xbcc68aea	-0.024236161
224	0xbe1f6b78	-0.1556834
225	0x3dba3ca2	0.09093596
226	0x3dcf05b1	0.101085074
227	0x3d5b36b1	0.053518955
228	0xbdf680af	-0.12036263
229	0xbe24de29	-0.16100372
230	0xbe02de52	-0.12780121
231	0x3df1723a	0.11789365
232	0x3c88c157	0.016693754
233	0x3dd82beb	0.10555252
234	0x3d22b132	0.039719768
235	0x3d062a9e	0.032755487
236	0x3cc4ec3e	0.02403843
237	0xbd9ae1b7	-0.07562583
238	0xbdfbd007	-0.122955374
239	0xbe27ef40	-0.1639986
240	0x3d735025	0.059402604
241	0xbd57e904	-0.052712455
242	0xbcb98999	-0.02264862
243	0xbdf221ae	-0.1182283
244	0xbc1bd008	-0.009510048
245	0xbdd1877a	-0.10230918
246	0xbd40cd70	-0.04707092
247	0x3d880992	0.066424504
248	0xbd93d6af	-0.07218682
249	0x3d19315e	0.037400596
250	0xbd17263e	-0.036901705
251	0xbe07f89f	-0.13278435
252	0xbc8539b0	-0.01626286
253	0xbd0028dd	-0.03128897
254	0xbd8f1449	-0.06986291
255	0xbe069bd5	-0.13145383

_orig_mod.sequential.0.bias f4 [128]
0	0x3b289cf9	0.0025728329
1	0x3c3ca973	0.011515009
2	0x3e02541b	0.12727396
3	0x3d6c1932	0.057641216
4	0xbd81ac4f	-0.063316934
5	0xbc98facd	-0.018674279
6	0xbd7b0787	-0.061286476
7	0x3d1f19e2	0.038843043
8	0x3d10e115	0.035370905
9	0xbdf63a2e	-0.12022816
10	0xbd84e997	-0.06489866
11	0xbd8d598e	-0.06901847
12	0xbbf318bc	-0.00741872
13	0x3d25dc6b	0.04049341
14	0x3d90ea10	0.07075894
15	0xbdb20cf2	-0.08693875
16	0x3deb9d89	0.11504657
17	0xbd920064	-0.07128981
18	0x3e1fd0aa	0.15606943
19	0xbcb5e41b	-0.022203496
20	0xbd77353e	-0.06035351
21	0x3d8e7784	0.069563895
22	0x3e1bdee3	0.15221743
23	0xbd21dc2c	-0.039516613
24	0x3e20a134	0.15686494
25	0x3d096ff0	0.033554018
26	0x3d98d478	0.074624
27	0x3d00b918	0.03142652
28	0xbcf4e45f	-0.029894052
29	0xbb55c6ad	-0.003261964
30	0xbd8bb6a8	-0.06821948
31	0x3db78e0e	0.08962642
32	0x3db34f5d	0.08755372
33	0x3de7e0fc	0.11322209
34	0xbde0e6dd	-0.10981534
35	0x3df8024e	0.121098146
36	0x3de4a5e1	0.111644514
37	0x3d6286cc	0.055304334
38	0xbd3b0736	-0.045661174
39	0x3de18bb5	0.11012975
40	0x3d9fd897	0.07804983
41	0x3dff863e	0.124767765
42	0xbde08503	-0.1096287
43	0x3ce0c230	0.027436346
44	0x3daeeb9f	0.08541035
45	0xbdebb1e4	-0.11508539
46	0x3df7c154	0.12097421
47	0x3e025c67	0.12730561
48	0xbd9fb594	-0.07798305
49	0xbe00c218	-0.12574041
50	0x3cdec282	0.027192358
51	0x3df3210a	0.11871536
52	0x3c4505e7	0.012025333
53	0x3cc579b4	0.024105884
54	0x3bf0e1a5	0.0073511177
55	0xbdc7cf10	-0.09756291
56	0x3dc1c22f	0.09460866
57	0x3de5bd5b	0.11217757
58	0xbddecd43	-0.10878994
59	0xbbca3cce	-0.0061717993
60	0x3e2dbf89	0.16967596
61	0xbcfcbbfe	-0.03085136
62	0xbda06280	-0.078312874
63	0x3dd7cebf	0.105374806
64	0x3db7bbbc	0.08971354
65	0x3df93de2	0.12170006
66	0xbc68519b	-0.0141796125
67	0x3d877646	0.06614356
68	0x3d1615f3	0.036642026
69	0x3dcbbd68	0.09948236
70	0x3dc6e830	0.09712255
71	0x3d481077	0.048843827
72	0x3b6f3858	0.003650209
73	0xbbf7fafd	-0.007567762
74	0xbd36ab50	-0.04459697
75	0x3d55c183	0.0521865
76	0x3deefe09	0.11669547
77	0xbd8ebce7	-0.06969624
78	0xbd9d2d4d	-0.07674656
79	0x3e06833e	0.13136002
80	0x3cf638a9	0.030056315
81	0xbd4b9a3c	-0.049707636
82	0x3e0e93dd	0.13923593
83	0xbdbc4f9f	-0.09194874
84	0xbcc48432	-0.023988817
85	0xbd183885	-0.037163276
86	0x3b8d82b5	0.00431856
87	0x3cd77b9f	0.026304064
88	0x3dbcc12f	0.09216534
89	0xbd236fb2	-0.039901443
90	0x3bcb4c0d	0.0062041343
91	0xbd5a7ebf	-0.05334353
92	0xbd6e3a04	-0.058160797
93	0x3cb205ab	0.021731218
94	0x3dff326d	0.1246079
95	0x3e148a14	0.14505798
96	0xbdbc8f8f	-0.09207069
97	0x3da8e504	0.08246806
98	0xbc6396e9	-0.01389096
99	0xbcf90277	-0.030396683
100	0x3cd6322f	0.026146976
101	0x3e0aeddf	0.13567303
102	0x3df4439a	0.119269565
103	0xbdbecf0c	-0.09316835
104	0x3d02c835	0.031929214
105	0x3db537ee	0.08848558
106	0x3d136624	0.03598608
107	0x3b284e3e	0.0025681402
108	0xbda86449	-0.08222253
109	0xbd2252a5	-0.039629597
110	0xbdeaafa3	-0.11459281
111	0x3d209305	0.03920271
112	0xbd29ce4e	-0.041456513
113	0x3d88bee4	0.066770345
114	0xbcd1c585	-0.02560688
115	0x3e1bc2ed	0.15211077
116	0xbd8ac533	-0.06775894
117	0x3e0b9d86	0.13634309
118	0xbc41ecb5	-0.0118362205
119	0x3d847ef5	0.06469528
120	0xbd983f88	-0.074339926
121	0x3d5b5148	0.053544313
122	0x3dbfe725	0.09370259
123	0x3e2b2704	0.16714102
124	0xbd2195dc	-0.039449558
125	0x3d9bce6b	0.076077305
126	0x3dcdbd9b	0.1004593
127	0xbd952736	-0.072828695

_orig_mod.sequential.3.weight f4 [64, 128]
0	0x3d68f35e	0.056872718
1	0xbc509c61	-0.012732596
2	0x3d9af9d9	0.07567186
3	0x3df51aa4	0.11967972
4	0x3cbc6912	0.02299932
5	0xbc1334fe	-0.008984802
6	0xbd8eb21c	-0.069675654
7	0x3b3e4ee9	0.0029038733
8	0xbc0a8394	-0.008454222
9	0xbdac762d	-0.08420978
10	0x3d44cce2	0.048046954
11	0x3d835543	0.06412747
12	0x3d44b3ad	0.048022915
13	0x3ddc4dbe	0.10757016
14	0xbd509696	-0.05092486
15	0x3dad587a	0.08464141
16	0x3d1c2688	0.038122684
17	0xbc8717b6	-0.016490798
18	0x3d8a4394	0.06751171
19	0x3d804ffa	0.06265254
20	0xbd5a046d	-0.053226877
21	0xbc8b6eea	-0.017020661
22	0x3dbeaed9	0.09310693
23	0xbdc57b90	-0.09642708
24	0x3d7b9192	0.061418124
25	0x3b80a97b	0.0039264536
26	0xbd8c2bbd	-0.0684428
27	0x3cfcc1a4	0.030854054
28	0x3d28a465	0.041172404
29	0x3dcdb83b	0.10044905
30	0x3dbe1cac	0.092828125
31	0xbd74eddd	-0.059797157
32	0xbca5d63a	-0.020243753
33	0x3d247d48	0.04015854
34	0x3dfee0d4	0.12445226
35	0x3da4ddf8	0.0805015
36	0x3d131309	0.035906825
37	0x3dd316fa	0.10307117
38	0xbd1a3e28	-0.037656933
39	0xbc113814	-0.008863468
40	0xbda933b4	-0.08261815
41	0xbd771ad1	-0.06032831
42	0xbd2eda9d	-0.042688955
43	0xbdb43713	-0.08799567
44	0x3d9e2daf	0.07723557
45	0x3d0411f2	0.032243676
46	0x3ce442c0	0.02786386
47	0x3dc551b5	0.09634725
48	0xbd9d4b19	-0.07680339
49	0xbba633fa	-0.005072114
50	0x3dcc947f	0.09989261
51	0xbd8cb151	-0.06869758
52	0x3d810d5e	0.06301378
53	0x3d1f4ce7	0.0388917
54	0xbdbdbae0	-0.09264159
55	0xbb702525	-0.0036643234
56	0xbb9acba4	-0.004723983
57	0x3cd6a2ac	0.026200615
58	0xbcb2a371	-0.02180645
59	0x3cebafb4	0.028770305
60	0x3dc07565	0.09397391
61	0x3d299d70	0.04140991
62	0x3c4a64f5	0.012353172
63	0xbdb57d41	-0.08861781
64	0x3dd676ea	0.104719
65	0x3cd98ac2	0.026555423
66	0x3df91dc4	0.121638805
67	0x3b21334b	0.0024597223
68	0xbb720be0	-0.0036933348
69	0x3d55e793	0.0522228
70	0x3dc8f2bb	0.09811922
71	0xbcd583c3	-0.026063805
72	0xbab88519	-0.0014077752
73	0xba77b4af	-0.0009449226
74	0x3d1107c6	0.035407804
75	0x3ce83666	0.028346252
76	0xbb8259a5	-0.0039779716
77	0x3dac3c72	0.084099665
78	0x3db62e24	0.088955194
79	0x3de50504	0.11182597
80	0x3d3e3316	0.046435438
81	0x3c941027	0.018074108
82	0x3b0055f8	0.0019582491
83	0x3da5d425	0.08097104
84	0xbcfe0738	-0.031009302
85	0xbdc8e0c7	-0.09808498
86	0x3c9599bd	0.018261785
87	0xbd9ed0a2	-0.07754637
88	0x3d8d6b5e	0.06905244
89	0xbc99ef47	-0.018790854
90	0x3c982d19	0.018576192
91	0xbd086130	-0.03329581
92	0x3dd1be92	0.102414265
93	0xbd611a67	-0.05495682
94	0x3d654a74	0.055979207
95	0x3ccc2290	0.024918824
96	0xbdc21188	-0.09476
97	0x3d66002b	0.056152504
98	0x3d528d9b	0.051404577
99	0xbda28d6e	-0.07937132
100	0xbdd50788	-0.10401827
101	0x3d579dac	0.052640602
102	0x3dacb273	0.08432474
103	0xbd000bb4	-0.03126116
104	0xbd24ac3c	-0.040203318
105	0xbd1eb743	-0.03874899
106	0x3d6dc7f0	0.058052003
107	0xbd036cbe	-0.032086127
108	0xbd07e150	-0.03317386
109	0x3d9f9c8d	0.077935316
110	0x3d9484c9	0.07251889
111	0x3d9d5422	0.07682063
112	0x3ca7fe66	0.020507049
113	0x3dd315b0	0.10306871
114	0xbc0d1bea	-0.008612612
115	0x3d74a42a	0.05972687
116	0x3ccd9b32	0.025098417
117	0xbbd38358	-0.0064548664
118	0x3bc3c5ed	0.0059745223
119	0x3b252129	0.0025196767
120	0x3d5770a3	0.052597653
121	0xbd119efc	-0.03555201
122	0xbd7e005f	-0.062012073
123	0x3c9dfecf	0.019286541
124	0x3dd5c3a9	0.1043771
125	0xbd55b2e3	-0.052172553
126	0xbb9c971f	-0.004778757
127	0x3c67cfe8	0.01414869
128	0xbd32d957	-0.043664303
129	0x3d953454	0.072853714
130	0x3d8faee2	0.07015778
131	0x3cdd2116	0.026993316
132	0xbc9dafeb	-0.019248923
133	0xbd8aa336	-0.06769411
134	0xbd32ad17	-0.043622103
135	0xbb9f9e2a	-0.0048711495
136	0xbc0f6dd4	-0.008754212
137	0xbd3bd645	-0.04585864
138	0xbac70b58	-0.0015185876
139	0xbcf03b72	-0.02932522
140	0x39cf5f07	0.00039552918
141	0xbd947874	-0.07249537
142	0x3c8d7489	0.017267482
143	0xbd219b20	-0.03945458
144	0x3d784d0c	0.060620353
145	0xbd9e73fc	-0.07736966
146	0xbd41fc10	-0.047359526
147	0x3cafc1ae	0.021454658
148	0xb80030f4	-3.056317e-05
149	0x3be29729	0.0069149924
150	0x3d2901c4	0.04126145
151	0x3d1aac31	0.03776187
152	0x3b60a9e1	0.0034280943
153	0x3d0fc7d6	0.035102688
154	0xbd00a832	-0.031410404
155	0xbd60af1a	-0.05485449
156	0x3d4a7838	0.049431056
157	0xbb3d44cb	-0.0028880115
158	0x3d30d120	0.043168187
159	0x3c833b3f	0.016019462
160	0x3d80b03c	0.06283614
161	0x3d63dd84	0.055631176
162	0xbd4217b7	-0.047385897
163	0xbd1eb783	-0.03874923
164	0x3d0c7eb4	0.03430052
165	0xbd8f95f9	-0.07011027
166	0xbc9f7fb5	-0.019470075
167	0x3d447523	0.047963273
168	0x3ca7249e	0.020403203
169	0x3d5a424b	0.05328588
170	0xbd176a86	-0.036966823
171	0x3db41907	0.08793836
172	0xbd8cfc0f	-0.06884014
173	0xbd319e5a	-0.043363906
174	0x3d8e348d	0.06943617
175	0xbd1d2d86	-0.038373493
176	0x3d36c1fd	0.044618595
177	0xbca194ce	-0.019724276
178	0xbd997ecf	-0.0749489
179	0xb9a12653	-0.00030736867
180	0x3d292a4b	0.0413001
181	0x3d79af57	0.060958233
182	0x3dac887f	0.08424472
183	0x3cb0e754	0.02159468
184	0x3da3cb00	0.079977036
185	0x3cc4c8d8	0.024021551
186	0x3c2e5b59	0.010641896
187	0x3c1a038f	0.0094002625
188	0xbcf534af	-0.029932348
189	0x3d304a7f	0.043039795
190	0xbbcfdf69	-0.0063437712
191	0x3d9c71ce	0.07638894
192	0xbb8c2245	-0.004276546
193	0xbd319aed	-0.04336064
194	0x3c5574a1	0.013028295
195	0xbcc09b3d	-0.023511523
196	0x3d907ee9	0.07055456
197	0x3d9e339f	0.0772469
198	0xbc4c4e95	-0.012469907
199	0xbc267f07	-0.010162122
200	0x3c89aee5	0.016807029
201	0x3d4d13e3	0.050067794
202	0xbd42d517	-0.0475665
203	0xbc718852	-0.014741974
204	0xbd222884	-0.03958942
205	0xbd945755	-0.0724322
206	0xbd82d7f7	-0.06388848
207	0xbd80b22c	-0.062839836
208	0x3d669e86	0.056303523
209	0x3d4c45c1	0.04987121
210	0xbda007ab	-0.078139625
211	0xbd9081a1	-0.07055975
212	0x3d8192d4	0.06326833
213	0x3d3d4d2d	0.04621618
214	0x3d62abce	0.055339627
215	0x3d0c4b00	0.034251213
216	0xbd29e35f	-0.041476604
217	0xbd2d246a	-0.042271055
218	0x3d428878	0.047493428
219	0xbd983b52	-0.074331895
220	0xbdb3c3a5	-0.087775506
221	0x3d0349f2	0.03205294
222	0xbd22e728	-0.03977123
223	0x3cacc75b	0.021091154
224	0x3d58ae47	0.05290058
225	0xbd26d5b2	-0.04073114
226	0xbd8b1d25	-0.06792668
227	0xbd1553c6	-0.036456846
228	0xbd621daf	-0.05520409
229	0xbc070e75	-0.008243193
230	0x3d955e25	0.07293347
231	0xbb546bd3	-0.00324129
232	0x3d887164	0.066622525
233	0xbd52001a	-0.051269628
234	0x3c9bb62a	0.019007761
235	0xbd844c17	-0.064598255
236	0x3a929d1a	0.0011185736
237	0xbb365e92	-0.0027827364
238	0xbd019f7a	-0.03164623
239	0x3d8de606	0.06928639
240	0x3d049dc9	0.03237704
241	0x3d014117	0.031556215
242	0x3dd586cb	0.104261
243	0x3c6f4e04	0.014606003
244	0xbca501b9	-0.020142423
245	0x3c8bd0f7	0.017067416
246	0x3dc382c0	0.09546423
247	0xbdd4cbd4	-0.1039044
248	0x3b18e0b5	0.0023327295
249	0x3d2c7250	0.042101204
250	0xbb149e25	-0.002267727
251	0xbda8786a	-0.08226092
252	0xbd6eedfd	-0.058332432
253	0xbd0a28c5	-0.033730287
254	0x3d32086b	0.04346506
255	0x3d5a89c9	0.05335406

_orig_mod.sequential.3.bias f4 [64]
0	0x3d1158d8	0.03548512
1	0xbd2e309c	-0.042526826
2	0xbc96cdf9	-0.018408762
3	0xbce8a324	-0.028398104
4	0xbd4b04cf	-0.049565133
5	0x3d9ced80	0.07662487
6	0xbc80b7ae	-0.015712585
7	0x3d856730	0.06513822
8	0x3df46c82	0.11934759
9	0x3c3191b3	0.01083796
10	0x3db59ecb	0.08868178
11	0x3d634971	0.05548996
12	0xbd94097c	-0.072283715
13	0x3d66a6a0	0.05631125
14	0x3d29b2ed	0.041430403
15	0x3df0dbd1	0.11760677
16	0xbd83fa55	-0.064442314
17	0x3ddab416	0.1067888
18	0x3b9ee36d	0.0048488886
19	0x3db5c017	0.08874529
20	0xbbe16878	-0.0068789087
21	0x3dd6d062	0.104889646
22	0x3d275ab8	0.040858
23	0x3d81f07a	0.063446954
24	0x3ce9761f	0.028498707
25	0x3d8d9d6a	0.0691479
26	0xbc8ed157	-0.017433805
27	0xbd0c7877	-0.03429457
28	0x3da0bc42	0.07848407
29	0x3d539767	0.05165806
30	0x3d586d2b	0.052838486
31	0x3d0e69c4	0.034768835
32	0x3d132320	0.03592217
33	0xbd66fa9e	-0.05639135
34	0x3db2fda5	0.08739785
35	0x3d1c25bd	0.038121928
36	0x3b95b04a	0.0045681344
37	0xbd81be03	-0.0633507
38	0xbd3ce442	-0.04611612
39	0x3d9aafda	0.07553072
40	0x3bceebe8	0.0063147433
41	0x3c8a8cf5	0.016912917
42	0xbd62558f	-0.055257376
43	0xbda2dde3	-0.07952478
44	0x3d863fde	0.065551504
45	0x3dcd8927	0.10035925
46	0x3dceed59	0.10103864
47	0x3dd1963f	0.10233735
48	0x3deea548	0.11652619
49	0x3d7467cf	0.059669312
50	0x3d8782bc	0.066167325
51	0x3c45a9cb	0.012064408
52	0x3d84d3ce	0.06485711
53	0xbd2430bc	-0.04008554
54	0xbd0ed52d	-0.03487127
55	0x3d125786	0.035728
56	0xbb955ca7	-0.004558164
57	0x3dac98fa	0.084276155
58	0x3da67566	0.08127861
59	0x3d5a5789	0.053306136
60	0x3da87527	0.0822547
61	0xbcd78e30	-0.026312917
62	0x3c6e980d	0.014562619
63	0xbd147d0a	-0.03625206

_orig_mod.sequential.6.weight f4 [32, 64]
0	0xbe120d29	-0.14262833
1	0x3dec0e49	0.11526162
2	0x3c4a94f7	0.012364618
3	0x3cc0b95c	0.023525886
4	0xbcaeb1af	-0.02132496
5	0x3e12e8b6	0.14346585
6	0xbcb05804	-0.021526344
7	0x3e05e1d6	0.13074431
8	0xbdea4e2a	-0.1144069
9	0x3da82bdb	0.0821149
10	0xbb4baa60	-0.0031076893
11	0x3c733dd7	0.014846287
12	0xbc0cf467	-0.008603192
13	0xbd2528b1	-0.04032201
14	0x3d121216	0.03566178
15	0xbc79b433	-0.015240717
16	0xbd41ed14	-0.047345236
17	0x3d6d399a	0.05791626
18	0x3e26a28c	0.16272944
19	0x3cc35cde	0.023847993
20	0xbdaacfc3	-0.08340409
21	0xbdb3c956	-0.08778636
22	0xbdb4c033	-0.088257216
23	0xbd5f58a2	-0.054527886
24	0x3e00c1e4	0.12573963
25	0x3dc50b1b	0.09621259
26	0xbd54f84f	-0.051994618
27	0x3bdd71db	0.0067579574
28	0x3cea553c	0.028605096
29	0x3d0a34c1	0.033741716
30	0xbde8159d	-0.113322474
31	0x3e0e0b36	0.13871464
32	0xbd006b59	-0.031352375
33	0xbdd257b8	-0.10270637
34	0xbcfd496a	-0.030918796
35	0x3d7e70e4	0.06211938
36	0x3d80208e	0.06256209
37	0xbcfa8763	-0.030582136
38	0x3d2b74d8	0.041859478
39	0xbd1213ea	-0.035663523
40	0xbd879666	-0.06620483
41	0xbd603faf	-0.054748233
42	0xbc90bb41	-0.017667415
43	0x3daf49c0	0.085589886
44	0xbd6b4f2e	-0.05744856
45	0xbd400ef0	-0.046889246
46	0xbcabfe8b	-0.020995399
47	0x3d4f31a1	0.05058444
48	0x3d41d22e	0.047319584
49	0xbcb09058	-0.021553203
50	0x3e0960ed	0.1341588
51	0xbd17099e	-0.036874406
52	0xbc8c3e43	-0.017119532
53	0xbd5fa4db	-0.054600578
54	0x3d368c25	0.044567246
55	0x3c78150c	0.015141737
56	0x3e287baa	0.16453424
57	0xbd5476a6	-0.051870964
58	0xbcc95c44	-0.024580128
59	0x3e364797	0.17800747
60	0x3d95efaa	0.07321103
61	0xbcb88cd2	-0.022528086
62	0x3dd25725	0.10270528
63	0x3e380bd4	0.17973262
64	0x3d8ec4cb	0.06971129
65	0xbd729cb4	-0.059231475
66	0xbaa105ea	-0.0012285088
67	0xbd1a5699	-0.037680242
68	0x3d1453a0	0.036212564
69	0xbdb0775b	-0.08616515
70	0x3e2aa2d6	0.1666368
71	0xbdbc77b2	-0.092025176
72	0x3dcb7340	0.099340916
73	0x3e2abcb4	0.16673547
74	0xbc98d8df	-0.0186581
75	0xbdafbd27	-0.08581
76	0xbd42419e	-0.04742586
77	0xbd9b8d22	-0.07595278
78	0xbdbfb65f	-0.093609564
79	0xbd823c8f	-0.06359207
80	0xbdabe26c	-0.08392796
81	0x3c165752	0.009176092
82	0x3d9fa16b	0.0779446
83	0x3d3b85e3	0.04578198
84	0x3d9b62d7	0.075872116
85	0x3ccba8cd	0.024860764
86	0x3d8c04ef	0.068368785
87	0x3da6c2a4	0.081425935
88	0x3c05cf66	0.008167123
89	0xbbcd4716	-0.0062645776
90	0x3d85df64	0.06536749
91	0x3e21ac13	0.15788297
92	0xbd52ffd1	-0.051513497
93	0x3e012320	0.12611055
94	0x3cb29121	0.021797718
95	0x3dcad2d5	0.09903494
96	0x3dc1a74d	0.09455738
97	0x3ceb38a7	0.028713537
98	0x3d871c6e	0.065972194
99	0x3dceaf14	0.10091987
100	0x3cfab22a	0.030602533
101	0x3ced20fc	0.028946392
102	0x3def960c	0.11698541
103	0xbd3c046c	-0.045902655
104	0xbcf598e7	-0.029980136
105	0x3dba174f	0.09086477
106	0x3dab9820	0.08378625
107	0x3e05f9a1	0.13083507
108	0xbe089f4a	-0.13342014
109	0x3e09dc6d	0.13462992
110	0x3dd91470	0.10599601
111	0xbcb12581	-0.021624329
112	0x3dc75bee	0.09734331
113	0xbd956e66	-0.072964475
114	0x3d4aad20	0.04948151
115	0x3c26fffb	0.010192866
116	0x3dab2025	0.083557405
117	0xbd9e55ba	-0.07731195
118	0xbd26f900	-0.04076481
119	0xbb994f35	-0.0046786317
120	0x3d1e22a4	0.038607255
121	0xbda3312b	-0.079683624
122	0xbc4d6cfa	-0.012538189
123	0x3d19e6b3	0.037573528
124	0x3af8b9ef	0.0018976311
125	0xbd6cc7f0	-0.057807863
126	0x3c34e71b	0.011041428
127	0xbc262b0e	-0.010142101
128	0xbd9ab27b	-0.07553574
129	0xbc64b2c3	-0.013958636
130	0xbd148a4c	-0.036264703
131	0xbd74e120	-0.05978501
132	0x3cc26830	0.023731321
133	0xbcbc23b5	-0.022966245
134	0xbd8e8469	-0.06958849
135	0xbdac84e1	-0.08423782
136	0xbdb4b156	-0.08822887
137	0xbcc4a772	-0.024005625
138	0x3dc5ce32	0.09658469
139	0x3b87a3ab	0.004139384
140	0xbd793196	-0.060838304
141	0xbd99a2ea	-0.075017765
142	0x3d270396	0.040774904
143	0x3dcfcbd5	0.101463
144	0xbdd07e81	-0.10180379
145	0x3dd1066d	0.10206304
146	0x3e0176ff	0.1264305
147	0x3c407205	0.011745934
148	0x3d63091d	0.055428613
149	0x3cd53aca	0.02602901
150	0xbdda828f	-0.10669433
151	0xbd439e92	-0.047758646
152	0xbc72f88b	-0.014829765
153	0xbd79997e	-0.060937397
154	0xbb1a8892	-0.0023579937
155	0x3cb711ac	0.022347294
156	0x3ca33a21	0.019925179
157	0x3da08359	0.078375526
158	0xbd9b87ee	-0.07594286
159	0x3df27a1b	0.11839696
160	0xbd3309a4	-0.043710366
161	0x3dd38459	0.10327978
162	0x3de4303e	0.11142014
163	0xbdb46799	-0.08808822
164	0xbdee658e	-0.11640464
165	0x3dce6a3d	0.10078857
166	0x3df0e346	0.11762099
167	0x3ba48f9f	0.005022004
168	0x3cf101de	0.029419836
169	0x3ca60b55	0.020269075
170	0xbc6c0399	-0.014405155
171	0x3d8981fe	0.06714247
172	0x3d733c47	0.059383657
173	0xbdf4f5c5	-0.11960939
174	0xbcc8ea26	-0.024525713
175	0xbda82470	-0.08210075
176	0x3d8d6e8a	0.06905849
177	0xbdd9d636	-0.106365606
178	0xbdbf665d	-0.09345696
179	0xbdbc3550	-0.09189856
180	0xbd0f5751	-0.03499538
181	0xbd8b56c6	-0.0680366
182	0xbbe90a4e	-0.007111824
183	0xbd968d80	-0.07351208
184	0x3dca59fe	0.09880446
185	0x3de42d97	0.11141508
186	0x3d921ac2	0.0713401
187	0xbd06167f	-0.032736298
188	0x3d8b451e	0.068002924
189	0xbdb53cc2	-0.08849479
190	0xbd446107	-0.047944095
191	0xbc0219f5	-0.007940759
192	0xbe209671	-0.15682389
193	0x3e1e0ef4	0.15435392
194	0x3d356042	0.04428125
195	0x3da1b4a6	0.07895784
196	0x3dd5d8f3	0.104417704
197	0x3e291fd9	0.16516055
198	0xbd8ee66a	-0.06977542
199	0x3d8c5b20	0.06853318
200	0xbda7e4e8	-0.08197957
201	0xbd08a542	-0.033360727
202	0xbdd88f92	-0.10574259
203	0x3debea0d	0.11519251
204	0xbdb07ad2	-0.08617176
205	0xbc35bbdf	-0.011092155
206	0x3e227f03	0.15868764
207	0xbdc324ee	-0.09528528
208	0x3d48cecc	0.049025342
209	0xbe00605e	-0.12536761
210	0xbd1c2a8c	-0.038126513
211	0x3d92e07e	0.07171725
212	0x3d1f6d7a	0.038922764
213	0xbcd6c2a5	-0.02621586
214	0xbd8ac64b	-0.06776103
215	0x3dd403cd	0.103522874
216	0x3e23927d	0.1597385
217	0x3d57aab3	0.052653026
218	0xbdbe8038	-0.093017995
219	0x3bc164b8	0.005901899
220	0x3dc15287	0.09439569
221	0x3d53be97	0.051695433
222	0x3dd2c28c	0.10291013
223	0x3e0d5ffc	0.13806146
224	0x3d8b9ddd	0.068172194
225	0xbdab87ed	-0.08375535
226	0xbd2d97b3	-0.042381
227	0x3d05a2ac	0.03262584
228	0xbd16f10a	-0.036850967
229	0x3d5d7588	0.054067165
230	0x3df914c4	0.12162164
231	0xbcb5b4ce	-0.022180941
232	0xbcafcfd9	-0.021461414
233	0xbd98e2a9	-0.07465107
234	0x3d8936a4	0.06699875
235	0x3d9e14be	0.077188
236	0x3e1d6c7c	0.15373415
237	0xbca0b78b	-0.01961877
238	0x3daca3a2	0.08429648
239	0xbe16a39a	-0.14710847
240	0x3d1b2eb1	0.037886325
241	0x3c6a3ab7	0.014296225
242	0xbd00b1f2	-0.031419702
243	0x3e1f8e68	0.15581667
244	0x3daf6475	0.085640825
245	0xbd89224f	-0.06695997
246	0xbd8f36c7	-0.0699287
247	0xbdae3a23	-0.085071824
248	0x3db048be	0.086076245
249	0x3dabe5d7	0.08393448
250	0x3de09604	0.10966113
251	0x3e0d5a8f	0.13804077
252	0xbd2405e2	-0.040044673
253	0x3d766dcd	0.060163308
254	0xbc929cb4	-0.017896987
255	0xbbe8df65	-0.007106709

_orig_mod.sequential.6.bias f4 [32]
0	0xbc31e59d	-0.010857967
1	0xbd7eeb8d	-0.062236357
2	0xbd9417bd	-0.0723109
3	0x3bc5eb38	0.006040003
4	0xbd8420aa	-0.06451543
5	0xbdb0b650	-0.08628523
6	0x3d21cfa6	0.03950467
7	0xbd7ee2df	-0.06222808
8	0xbd9ae157	-0.075625114
9	0xbd77c2e5	-0.0604886
10	0x3d55404e	0.05206328
11	0x3c8c96e2	0.01716179
12	0xbe104dda	-0.14092198
13	0xbdc81989	-0.097704954
14	0x3d6b0b75	0.057383973
15	0x3e1c30c5	0.15252979
16	0x3da7943e	0.08182572
17	0x3dc84867	0.09779435
18	0x3d2d362d	0.042287994
19	0x3d85c3b1	0.06531466
20	0x3de12d40	0.10994959
21	0xbcc7b38f	-0.024377612
22	0x3db3d2fb	0.08780476
23	0xbcfab7e1	-0.030605258
24	0x3db1802a	0.086670235
25	0xbe02a0b9	-0.12756623
26	0xbceebdb2	-0.029143188
27	0xbd6460bf	-0.055756327
28	0xbb6016c5	-0.003419326
29	0x3e1e87dc	0.15481514
30	0xbd007e6a	-0.031370558
31	0x3d325f37	0.043547835

_orig_mod.sequential.9.weight f4 [1, 32]
0	0xbd958cf1	-0.07302273
1	0x3da35cee	0.07976709
2	0xbdbde1af	-0.09271561
3	0xbe21b415	-0.15791352
4	0xbe4c0d15	-0.19926865
5	0x3c0af9d9	0.00848242
6	0xbe5f90c7	-0.21832572
7	0xbe6230b7	-0.22088896
8	0x3e5845ff	0.21120451
9	0x3debe435	0.115181364
10	0xbd98f35f	-0.07468294
11	0xbdf38b1a	-0.11891766
12	0x3e07522c	0.1321494
13	0x3bb8aa8a	0.005635564
14	0xbe523e3f	-0.20531558
15	0x3e3eb793	0.18624716
16	0x3e6e3f6e	0.23266384
17	0x3d9ee6df	0.07758879
18	0x3e47df1f	0.19518708
19	0xbe48eeb3	-0.19622307
20	0x3d3193ce	0.04335385
21	0x3e7a6ef7	0.24456392
22	0xbe7068b7	-0.23477446
23	0xbe6597d9	-0.22421207
24	0x3d89a1e2	0.0672033
25	0x3d08f8c8	0.03344038
26	0x3dca2c8c	0.09871778
27	0xbdb73876	-0.08946316
28	0x3e5639e0	0.20920515
29	0x3e400404	0.18751532
30	0xbe6c502e	-0.23077461
31	0xbe64d273	-0.22345905
